…
I0304 21:28:27.613564 46984 net.cpp:50] Initializing net from parameters: 
name: "FCN"
state {
  phase: TRAIN
}
layer {
  name: "data"
  type: "Data"
  top: "data"
  include {
    phase: TRAIN
  }
  transform_param {
    mean_value: 104.0546
    mean_value: 101.95628
    mean_value: 98.561234
  }
  data_param {
    source: "../../camvid300_lmdb/train-lmdb"
    batch_size: 1
    backend: LMDB
  }
}
layer {
  name: "label"
  type: "Data"
  top: "label"
  include {
    phase: TRAIN
  }
  data_param {
    source: "../../camvid300_lmdb/train-label-lmdb"
    batch_size: 1
    backend: LMDB
  }
}
layer {
  name: "conv1_1"
  type: "Convolution"
  bottom: "data"
  top: "conv1_1"
  param {
    lr_mult: 1
    decay_mult: 1
  }
  param {
    lr_mult: 2
    decay_mult: 0
  }
  convolution_param {
    num_output: 64
    pad: 100
    kernel_size: 3
    engine: CAFFE
  }
}
layer {
  name: "relu1_1"
  type: "ReLU"
  bottom: "conv1_1"
  top: "conv1_1"
}
layer {
  name: "conv1_2"
  type: "Convolution"
  bottom: "conv1_1"
  top: "conv1_2"
  param {
    lr_mult: 1
    decay_mult: 1
  }
  param {
    lr_mult: 2
    decay_mult: 0
  }
  convolution_param {
    num_output: 64
    pad: 1
    kernel_size: 3
    engine: CAFFE
  }
}
layer {
  name: "relu1_2"
  type: "ReLU"
  bottom: "conv1_2"
  top: "conv1_2"
}
layer {
  name: "pool1"
  type: "Pooling"
  bottom: "conv1_2"
  top: "pool1"
  pooling_param {
    pool: MAX
    kernel_size: 2
    stride: 2
  }
}
layer {
  name: "conv2_1"
  type: "Convolution"
  bottom: "pool1"
  top: "conv2_1"
  param {
    lr_mult: 1
    decay_mult: 1
  }
  param {
    lr_mult: 2
    decay_mult: 0
  }
  convolution_param {
    num_output: 128
    pad: 1
    kernel_size: 3
    engine: CAFFE
  }
}
layer {
  name: "relu2_1"
  type: "ReLU"
  bottom: "conv2_1"
  top: "conv2_1"
}
layer {
  name: "conv2_2"
  type: "Convolution"
  bottom: "conv2_1"
  top: "conv2_2"
  param {
    lr_mult: 1
    decay_mult: 1
  }
  param {
    lr_mult: 2
    decay_mult: 0
  }
  convolution_param {
    num_output: 128
    pad: 1
    kernel_size: 3
    engine: CAFFE
  }
}
layer {
  name: "relu2_2"
  type: "ReLU"
  bottom: "conv2_2"
  top: "conv2_2"
}
layer {
  name: "pool2"
  type: "Pooling"
  bottom: "conv2_2"
  top: "pool2"
  pooling_param {
    pool: MAX
    kernel_size: 2
    stride: 2
  }
}
layer {
  name: "conv3_1"
  type: "Convolution"
  bottom: "pool2"
  top: "conv3_1"
  param {
    lr_mult: 1
    decay_mult: 1
  }
  param {
    lr_mult: 2
    decay_mult: 0
  }
  convolution_param {
    num_output: 256
    pad: 1
    kernel_size: 3
    engine: CAFFE
  }
}
layer {
  name: "relu3_1"
  type: "ReLU"
  bottom: "conv3_1"
  top: "conv3_1"
}
layer {
  name: "conv3_2"
  type: "Convolution"
  bottom: "conv3_1"
  top: "conv3_2"
  param {
    lr_mult: 1
    decay_mult: 1
  }
  param {
    lr_mult: 2
    decay_mult: 0
  }
  convolution_param {
    num_output: 256
    pad: 1
    kernel_size: 3
    engine: CAFFE
  }
}
layer {
  name: "relu3_2"
  type: "ReLU"
  bottom: "conv3_2"
  top: "conv3_2"
}
layer {
  name: "conv3_3"
  type: "Convolution"
  bottom: "conv3_2"
  top: "conv3_3"
  param {
    lr_mult: 1
    decay_mult: 1
  }
  param {
    lr_mult: 2
    decay_mult: 0
  }
  convolution_param {
    num_output: 256
    pad: 1
    kernel_size: 3
    engine: CAFFE
  }
}
layer {
  name: "relu3_3"
  type: "ReLU"
  bottom: "conv3_3"
  top: "conv3_3"
}
layer {
  name: "pool3"
  type: "Pooling"
  bottom: "conv3_3"
  top: "pool3"
  pooling_param {
    pool: MAX
    kernel_size: 2
    stride: 2
  }
}
layer {
  name: "conv4_1"
  type: "Convolution"
  bottom: "pool3"
  top: "conv4_1"
  param {
    lr_mult: 1
    decay_mult: 1
  }
  param {
    lr_mult: 2
    decay_mult: 0
  }
  convolution_param {
    num_output: 512
    pad: 1
    kernel_size: 3
    engine: CAFFE
  }
}
layer {
  name: "relu4_1"
  type: "ReLU"
  bottom: "conv4_1"
  top: "conv4_1"
}
layer {
  name: "conv4_2"
  type: "Convolution"
  bottom: "conv4_1"
  top: "conv4_2"
  param {
    lr_mult: 1
    decay_mult: 1
  }
  param {
    lr_mult: 2
    decay_mult: 0
  }
  convolution_param {
    num_output: 512
    pad: 1
    kernel_size: 3
    engine: CAFFE
  }
}
layer {
  name: "relu4_2"
  type: "ReLU"
  bottom: "conv4_2"
  top: "conv4_2"
}
layer {
  name: "conv4_3"
  type: "Convolution"
  bottom: "conv4_2"
  top: "conv4_3"
  param {
    lr_mult: 1
    decay_mult: 1
  }
  param {
    lr_mult: 2
    decay_mult: 0
  }
  convolution_param {
    num_output: 512
    pad: 1
    kernel_size: 3
    engine: CAFFE
  }
}
layer {
  name: "relu4_3"
  type: "ReLU"
  bottom: "conv4_3"
  top: "conv4_3"
}
layer {
  name: "pool4"
  type: "Pooling"
  bottom: "conv4_3"
  top: "pool4"
  pooling_param {
    pool: MAX
    kernel_size: 2
    stride: 2
  }
}
layer {
  name: "conv5_1"
  type: "Convolution"
  bottom: "pool4"
  top: "conv5_1"
  param {
    lr_mult: 1
    decay_mult: 1
  }
  param {
    lr_mult: 2
    decay_mult: 0
  }
  convolution_param {
    num_output: 512
    pad: 1
    kernel_size: 3
    engine: CAFFE
  }
}
layer {
  name: "relu5_1"
  type: "ReLU"
  bottom: "conv5_1"
  top: "conv5_1"
}
layer {
  name: "conv5_2"
  type: "Convolution"
  bottom: "conv5_1"
  top: "conv5_2"
  param {
    lr_mult: 1
    decay_mult: 1
  }
  param {
    lr_mult: 2
    decay_mult: 0
  }
  convolution_param {
    num_output: 512
    pad: 1
    kernel_size: 3
    engine: CAFFE
  }
}
layer {
  name: "relu5_2"
  type: "ReLU"
  bottom: "conv5_2"
  top: "conv5_2"
}
layer {
  name: "conv5_3"
  type: "Convolution"
  bottom: "conv5_2"
  top: "conv5_3"
  param {
    lr_mult: 1
    decay_mult: 1
  }
  param {
    lr_mult: 2
    decay_mult: 0
  }
  convolution_param {
    num_output: 512
    pad: 1
    kernel_size: 3
    engine: CAFFE
  }
}
layer {
  name: "relu5_3"
  type: "ReLU"
  bottom: "conv5_3"
  top: "conv5_3"
}
layer {
  name: "pool5"
  type: "Pooling"
  bottom: "conv5_3"
  top: "pool5"
  pooling_param {
    pool: MAX
    kernel_size: 2
    stride: 2
  }
}
layer {
  name: "fc6-conv"
  type: "Convolution"
  bottom: "pool5"
  top: "fc6"
  param {
    lr_mult: 1
    decay_mult: 1
  }
  param {
    lr_mult: 2
    decay_mult: 0
  }
  convolution_param {
    num_output: 4096
    kernel_size: 7
    engine: CAFFE
  }
}
layer {
  name: "relu6"
  type: "ReLU"
  bottom: "fc6"
  top: "fc6"
}
layer {
  name: "drop6"
  type: "Dropout"
  bottom: "fc6"
  top: "fc6"
  dropout_param {
    dropout_ratio: 0.5
  }
}
layer {
  name: "fc7-conv"
  type: "Convolution"
  bottom: "fc6"
  top: "fc7"
  param {
    lr_mult: 1
    decay_mult: 1
  }
  param {
    lr_mult: 2
    decay_mult: 0
  }
  convolution_param {
    num_output: 4096
    kernel_size: 1
    engine: CAFFE
  }
}
layer {
  name: "relu7"
  type: "ReLU"
  bottom: "fc7"
  top: "fc7"
}
layer {
  name: "drop7"
  type: "Dropout"
  bottom: "fc7"
  top: "fc7"
  dropout_param {
    dropout_ratio: 0.5
  }
}
layer {
  name: "score59"
  type: "Convolution"
  bottom: "fc7"
  top: "score59"
  param {
    lr_mult: 1
    decay_mult: 1
  }
  param {
    lr_mult: 2
    decay_mult: 0
  }
  convolution_param {
    num_output: 32
    kernel_size: 1
    weight_filler {
      type: "xavier"
    }
    bias_filler {
      type: "constant"
    }
    engine: CAFFE
  }
}
layer {
  name: "upscore2"
  type: "Deconvolution"
  bottom: "score59"
  top: "upscore2"
  param {
    lr_mult: 1
    decay_mult: 1
  }
  convolution_param {
    num_output: 32
    bias_term: false
    kernel_size: 4
    stride: 2
  }
}
layer {
  name: "score-pool4"
  type: "Convolution"
  bottom: "pool4"
  top: "score-pool4"
  param {
    lr_mult: 1
    decay_mult: 1
  }
  param {
    lr_mult: 2
    decay_mult: 0
  }
  convolution_param {
    num_output: 32
    kernel_size: 1
    engine: CAFFE
  }
}
layer {
  name: "crop"
  type: "Crop"
  bottom: "score-pool4"
  bottom: "upscore2"
  top: "score-pool4c"
}
layer {
  name: "fuse"
  type: "Eltwise"
  bottom: "upscore2"
  bottom: "score-pool4c"
  top: "score-fused"
  eltwise_param {
    operation: SUM
  }
}
layer {
  name: "upsample-fused-16"
  type: "Deconvolution"
  bottom: "score-fused"
  top: "score4"
  param {
    lr_mult: 1
    decay_mult: 1
  }
  convolution_param {
    num_output: 32
    bias_term: false
    kernel_size: 4
    stride: 2
  }
}
layer {
  name: "score-pool3"
  type: "Convolution"
  bottom: "pool3"
  top: "score-pool3"
  param {
    lr_mult: 1
    decay_mult: 1
  }
  param {
    lr_mult: 2
    decay_mult: 0
  }
  convolution_param {
    num_output: 32
    kernel_size: 1
    engine: CAFFE
  }
}
layer {
  name: "crop"
  type: "Crop"
  bottom: "score-pool3"
  bottom: "score4"
  top: "score-pool3c"
}
layer {
  name: "fuse"
  type: "Eltwise"
  bottom: "score4"
  bottom: "score-pool3c"
  top: "score-final"
  eltwise_param {
    operation: SUM
  }
}
layer {
  name: "upsample"
  type: "Deconvolution"
  bottom: "score-final"
  top: "bigscore"
  param {
    lr_mult: 0
  }
  convolution_param {
    num_output: 32
    bias_term: false
    kernel_size: 16
    stride: 8
  }
}
layer {
  name: "crop"
  type: "Crop"
  bottom: "bigscore"
  bottom: "data"
  top: "score"
}
layer {
  name: "loss"
  type: "SoftmaxWithLoss"
  bottom: "score"
  bottom: "label"
  top: "loss"
  loss_param {
    normalize: false
  }
}
I0304 21:28:27.613859 46984 layer_factory.hpp:76] Creating layer data
I0304 21:28:27.614511 46984 net.cpp:111] Creating Layer data
I0304 21:28:27.614549 46984 net.cpp:434] data -> data
I0304 21:28:27.696501 46993 db_lmdb.cpp:22] Opened lmdb ../../camvid300_lmdb/train-lmdb
I0304 21:28:27.762583 46984 data_layer.cpp:44] output data size: 1,3,300,300
I0304 21:28:27.953248 46984 net.cpp:156] Setting up data
I0304 21:28:27.953311 46984 net.cpp:164] Top shape: 1 3 300 300 (270000)
I0304 21:28:27.953339 46984 layer_factory.hpp:76] Creating layer data_data_0_split
I0304 21:28:27.953367 46984 net.cpp:111] Creating Layer data_data_0_split
I0304 21:28:27.953390 46984 net.cpp:478] data_data_0_split <- data
I0304 21:28:27.953416 46984 net.cpp:434] data_data_0_split -> data_data_0_split_0
I0304 21:28:27.953444 46984 net.cpp:434] data_data_0_split -> data_data_0_split_1
I0304 21:28:27.953474 46984 net.cpp:156] Setting up data_data_0_split
I0304 21:28:27.953495 46984 net.cpp:164] Top shape: 1 3 300 300 (270000)
I0304 21:28:27.953513 46984 net.cpp:164] Top shape: 1 3 300 300 (270000)
I0304 21:28:27.953531 46984 layer_factory.hpp:76] Creating layer label
I0304 21:28:27.953600 46984 net.cpp:111] Creating Layer label
I0304 21:28:27.953629 46984 net.cpp:434] label -> label
I0304 21:28:28.108063 46995 db_lmdb.cpp:22] Opened lmdb ../../camvid300_lmdb/train-label-lmdb
I0304 21:28:28.187528 46984 data_layer.cpp:44] output data size: 1,1,300,300
I0304 21:28:28.255542 46984 net.cpp:156] Setting up label
I0304 21:28:28.255645 46984 net.cpp:164] Top shape: 1 1 300 300 (90000)
I0304 21:28:28.278064 46984 layer_factory.hpp:76] Creating layer conv1_1
I0304 21:28:28.278169 46984 net.cpp:111] Creating Layer conv1_1
I0304 21:28:28.278220 46984 net.cpp:478] conv1_1 <- data_data_0_split_0
I0304 21:28:28.278347 46984 net.cpp:434] conv1_1 -> conv1_1
I0304 21:28:28.300704 46984 net.cpp:156] Setting up conv1_1
I0304 21:28:28.300806 46984 net.cpp:164] Top shape: 1 64 498 498 (15872256)
I0304 21:28:28.300897 46984 layer_factory.hpp:76] Creating layer relu1_1
I0304 21:28:28.300967 46984 net.cpp:111] Creating Layer relu1_1
I0304 21:28:28.301013 46984 net.cpp:478] relu1_1 <- conv1_1
I0304 21:28:28.301059 46984 net.cpp:420] relu1_1 -> conv1_1 (in-place)
I0304 21:28:28.301125 46984 net.cpp:156] Setting up relu1_1
I0304 21:28:28.301173 46984 net.cpp:164] Top shape: 1 64 498 498 (15872256)
I0304 21:28:28.301213 46984 layer_factory.hpp:76] Creating layer conv1_2
I0304 21:28:28.301261 46984 net.cpp:111] Creating Layer conv1_2
I0304 21:28:28.301301 46984 net.cpp:478] conv1_2 <- conv1_1
I0304 21:28:28.301367 46984 net.cpp:434] conv1_2 -> conv1_2
I0304 21:28:28.336643 46984 net.cpp:156] Setting up conv1_2
I0304 21:28:28.336686 46984 net.cpp:164] Top shape: 1 64 498 498 (15872256)
I0304 21:28:28.336716 46984 layer_factory.hpp:76] Creating layer relu1_2
I0304 21:28:28.336740 46984 net.cpp:111] Creating Layer relu1_2
I0304 21:28:28.336760 46984 net.cpp:478] relu1_2 <- conv1_2
I0304 21:28:28.336782 46984 net.cpp:420] relu1_2 -> conv1_2 (in-place)
I0304 21:28:28.336807 46984 net.cpp:156] Setting up relu1_2
I0304 21:28:28.336827 46984 net.cpp:164] Top shape: 1 64 498 498 (15872256)
I0304 21:28:28.336845 46984 layer_factory.hpp:76] Creating layer pool1
I0304 21:28:28.336865 46984 net.cpp:111] Creating Layer pool1
I0304 21:28:28.336882 46984 net.cpp:478] pool1 <- conv1_2
I0304 21:28:28.336902 46984 net.cpp:434] pool1 -> pool1
I0304 21:28:28.336940 46984 net.cpp:156] Setting up pool1
I0304 21:28:28.336962 46984 net.cpp:164] Top shape: 1 64 249 249 (3968064)
I0304 21:28:28.336979 46984 layer_factory.hpp:76] Creating layer conv2_1
I0304 21:28:28.337002 46984 net.cpp:111] Creating Layer conv2_1
I0304 21:28:28.337018 46984 net.cpp:478] conv2_1 <- pool1
I0304 21:28:28.337044 46984 net.cpp:434] conv2_1 -> conv2_1
I0304 21:28:28.337214 46984 net.cpp:156] Setting up conv2_1
I0304 21:28:28.337244 46984 net.cpp:164] Top shape: 1 128 249 249 (7936128)
I0304 21:28:28.337268 46984 layer_factory.hpp:76] Creating layer relu2_1
I0304 21:28:28.337291 46984 net.cpp:111] Creating Layer relu2_1
I0304 21:28:28.337313 46984 net.cpp:478] relu2_1 <- conv2_1
I0304 21:28:28.337335 46984 net.cpp:420] relu2_1 -> conv2_1 (in-place)
I0304 21:28:28.337357 46984 net.cpp:156] Setting up relu2_1
I0304 21:28:28.337407 46984 net.cpp:164] Top shape: 1 128 249 249 (7936128)
I0304 21:28:28.337446 46984 layer_factory.hpp:76] Creating layer conv2_2
I0304 21:28:28.337497 46984 net.cpp:111] Creating Layer conv2_2
I0304 21:28:28.337539 46984 net.cpp:478] conv2_2 <- conv2_1
I0304 21:28:28.337586 46984 net.cpp:434] conv2_2 -> conv2_2
I0304 21:28:28.346182 46984 net.cpp:156] Setting up conv2_2
I0304 21:28:28.346282 46984 net.cpp:164] Top shape: 1 128 249 249 (7936128)
I0304 21:28:28.346355 46984 layer_factory.hpp:76] Creating layer relu2_2
I0304 21:28:28.346417 46984 net.cpp:111] Creating Layer relu2_2
I0304 21:28:28.346462 46984 net.cpp:478] relu2_2 <- conv2_2
I0304 21:28:28.346508 46984 net.cpp:420] relu2_2 -> conv2_2 (in-place)
I0304 21:28:28.346561 46984 net.cpp:156] Setting up relu2_2
I0304 21:28:28.346607 46984 net.cpp:164] Top shape: 1 128 249 249 (7936128)
I0304 21:28:28.346647 46984 layer_factory.hpp:76] Creating layer pool2
I0304 21:28:28.346699 46984 net.cpp:111] Creating Layer pool2
I0304 21:28:28.346742 46984 net.cpp:478] pool2 <- conv2_2
I0304 21:28:28.346788 46984 net.cpp:434] pool2 -> pool2
I0304 21:28:28.346844 46984 net.cpp:156] Setting up pool2
I0304 21:28:28.346892 46984 net.cpp:164] Top shape: 1 128 125 125 (2000000)
I0304 21:28:28.346932 46984 layer_factory.hpp:76] Creating layer conv3_1
I0304 21:28:28.346983 46984 net.cpp:111] Creating Layer conv3_1
I0304 21:28:28.347025 46984 net.cpp:478] conv3_1 <- pool2
I0304 21:28:28.347074 46984 net.cpp:434] conv3_1 -> conv3_1
I0304 21:28:28.351881 46984 net.cpp:156] Setting up conv3_1
I0304 21:28:28.352005 46984 net.cpp:164] Top shape: 1 256 125 125 (4000000)
I0304 21:28:28.352077 46984 layer_factory.hpp:76] Creating layer relu3_1
I0304 21:28:28.352133 46984 net.cpp:111] Creating Layer relu3_1
I0304 21:28:28.352174 46984 net.cpp:478] relu3_1 <- conv3_1
I0304 21:28:28.352221 46984 net.cpp:420] relu3_1 -> conv3_1 (in-place)
I0304 21:28:28.352272 46984 net.cpp:156] Setting up relu3_1
I0304 21:28:28.352331 46984 net.cpp:164] Top shape: 1 256 125 125 (4000000)
I0304 21:28:28.352375 46984 layer_factory.hpp:76] Creating layer conv3_2
I0304 21:28:28.352422 46984 net.cpp:111] Creating Layer conv3_2
I0304 21:28:28.352461 46984 net.cpp:478] conv3_2 <- conv3_1
I0304 21:28:28.352514 46984 net.cpp:434] conv3_2 -> conv3_2
I0304 21:28:28.365176 46984 net.cpp:156] Setting up conv3_2
I0304 21:28:28.365219 46984 net.cpp:164] Top shape: 1 256 125 125 (4000000)
I0304 21:28:28.365245 46984 layer_factory.hpp:76] Creating layer relu3_2
I0304 21:28:28.365269 46984 net.cpp:111] Creating Layer relu3_2
I0304 21:28:28.365288 46984 net.cpp:478] relu3_2 <- conv3_2
I0304 21:28:28.365315 46984 net.cpp:420] relu3_2 -> conv3_2 (in-place)
I0304 21:28:28.365341 46984 net.cpp:156] Setting up relu3_2
I0304 21:28:28.365362 46984 net.cpp:164] Top shape: 1 256 125 125 (4000000)
I0304 21:28:28.365380 46984 layer_factory.hpp:76] Creating layer conv3_3
I0304 21:28:28.365399 46984 net.cpp:111] Creating Layer conv3_3
I0304 21:28:28.365417 46984 net.cpp:478] conv3_3 <- conv3_2
I0304 21:28:28.365437 46984 net.cpp:434] conv3_3 -> conv3_3
I0304 21:28:28.367323 46984 net.cpp:156] Setting up conv3_3
I0304 21:28:28.367357 46984 net.cpp:164] Top shape: 1 256 125 125 (4000000)
I0304 21:28:28.367379 46984 layer_factory.hpp:76] Creating layer relu3_3
I0304 21:28:28.367403 46984 net.cpp:111] Creating Layer relu3_3
I0304 21:28:28.367422 46984 net.cpp:478] relu3_3 <- conv3_3
I0304 21:28:28.367442 46984 net.cpp:420] relu3_3 -> conv3_3 (in-place)
I0304 21:28:28.367463 46984 net.cpp:156] Setting up relu3_3
I0304 21:28:28.367483 46984 net.cpp:164] Top shape: 1 256 125 125 (4000000)
I0304 21:28:28.367501 46984 layer_factory.hpp:76] Creating layer pool3
I0304 21:28:28.367519 46984 net.cpp:111] Creating Layer pool3
I0304 21:28:28.367537 46984 net.cpp:478] pool3 <- conv3_3
I0304 21:28:28.367555 46984 net.cpp:434] pool3 -> pool3
I0304 21:28:28.367579 46984 net.cpp:156] Setting up pool3
I0304 21:28:28.367599 46984 net.cpp:164] Top shape: 1 256 63 63 (1016064)
I0304 21:28:28.367616 46984 layer_factory.hpp:76] Creating layer pool3_pool3_0_split
I0304 21:28:28.367635 46984 net.cpp:111] Creating Layer pool3_pool3_0_split
I0304 21:28:28.367652 46984 net.cpp:478] pool3_pool3_0_split <- pool3
I0304 21:28:28.367673 46984 net.cpp:434] pool3_pool3_0_split -> pool3_pool3_0_split_0
I0304 21:28:28.367697 46984 net.cpp:434] pool3_pool3_0_split -> pool3_pool3_0_split_1
I0304 21:28:28.367720 46984 net.cpp:156] Setting up pool3_pool3_0_split
I0304 21:28:28.367739 46984 net.cpp:164] Top shape: 1 256 63 63 (1016064)
I0304 21:28:28.367758 46984 net.cpp:164] Top shape: 1 256 63 63 (1016064)
I0304 21:28:28.367774 46984 layer_factory.hpp:76] Creating layer conv4_1
I0304 21:28:28.367794 46984 net.cpp:111] Creating Layer conv4_1
I0304 21:28:28.367810 46984 net.cpp:478] conv4_1 <- pool3_pool3_0_split_0
I0304 21:28:28.367830 46984 net.cpp:434] conv4_1 -> conv4_1
I0304 21:28:28.372009 46984 net.cpp:156] Setting up conv4_1
I0304 21:28:28.372043 46984 net.cpp:164] Top shape: 1 512 63 63 (2032128)
I0304 21:28:28.372066 46984 layer_factory.hpp:76] Creating layer relu4_1
I0304 21:28:28.372087 46984 net.cpp:111] Creating Layer relu4_1
I0304 21:28:28.372104 46984 net.cpp:478] relu4_1 <- conv4_1
I0304 21:28:28.372124 46984 net.cpp:420] relu4_1 -> conv4_1 (in-place)
I0304 21:28:28.372146 46984 net.cpp:156] Setting up relu4_1
I0304 21:28:28.372165 46984 net.cpp:164] Top shape: 1 512 63 63 (2032128)
I0304 21:28:28.372181 46984 layer_factory.hpp:76] Creating layer conv4_2
I0304 21:28:28.372205 46984 net.cpp:111] Creating Layer conv4_2
I0304 21:28:28.372222 46984 net.cpp:478] conv4_2 <- conv4_1
I0304 21:28:28.372262 46984 net.cpp:434] conv4_2 -> conv4_2
I0304 21:28:28.379068 46984 net.cpp:156] Setting up conv4_2
I0304 21:28:28.379104 46984 net.cpp:164] Top shape: 1 512 63 63 (2032128)
I0304 21:28:28.379135 46984 layer_factory.hpp:76] Creating layer relu4_2
I0304 21:28:28.379158 46984 net.cpp:111] Creating Layer relu4_2
I0304 21:28:28.379176 46984 net.cpp:478] relu4_2 <- conv4_2
I0304 21:28:28.379196 46984 net.cpp:420] relu4_2 -> conv4_2 (in-place)
I0304 21:28:28.379218 46984 net.cpp:156] Setting up relu4_2
I0304 21:28:28.379238 46984 net.cpp:164] Top shape: 1 512 63 63 (2032128)
I0304 21:28:28.379256 46984 layer_factory.hpp:76] Creating layer conv4_3
I0304 21:28:28.379276 46984 net.cpp:111] Creating Layer conv4_3
I0304 21:28:28.379292 46984 net.cpp:478] conv4_3 <- conv4_2
I0304 21:28:28.379323 46984 net.cpp:434] conv4_3 -> conv4_3
I0304 21:28:28.386188 46984 net.cpp:156] Setting up conv4_3
I0304 21:28:28.386225 46984 net.cpp:164] Top shape: 1 512 63 63 (2032128)
I0304 21:28:28.386250 46984 layer_factory.hpp:76] Creating layer relu4_3
I0304 21:28:28.386270 46984 net.cpp:111] Creating Layer relu4_3
I0304 21:28:28.386288 46984 net.cpp:478] relu4_3 <- conv4_3
I0304 21:28:28.386312 46984 net.cpp:420] relu4_3 -> conv4_3 (in-place)
I0304 21:28:28.386337 46984 net.cpp:156] Setting up relu4_3
I0304 21:28:28.386356 46984 net.cpp:164] Top shape: 1 512 63 63 (2032128)
I0304 21:28:28.386373 46984 layer_factory.hpp:76] Creating layer pool4
I0304 21:28:28.386394 46984 net.cpp:111] Creating Layer pool4
I0304 21:28:28.386410 46984 net.cpp:478] pool4 <- conv4_3
I0304 21:28:28.386433 46984 net.cpp:434] pool4 -> pool4
I0304 21:28:28.386461 46984 net.cpp:156] Setting up pool4
I0304 21:28:28.386482 46984 net.cpp:164] Top shape: 1 512 32 32 (524288)
I0304 21:28:28.386498 46984 layer_factory.hpp:76] Creating layer pool4_pool4_0_split
I0304 21:28:28.386518 46984 net.cpp:111] Creating Layer pool4_pool4_0_split
I0304 21:28:28.386533 46984 net.cpp:478] pool4_pool4_0_split <- pool4
I0304 21:28:28.386555 46984 net.cpp:434] pool4_pool4_0_split -> pool4_pool4_0_split_0
I0304 21:28:28.386579 46984 net.cpp:434] pool4_pool4_0_split -> pool4_pool4_0_split_1
I0304 21:28:28.386600 46984 net.cpp:156] Setting up pool4_pool4_0_split
I0304 21:28:28.386620 46984 net.cpp:164] Top shape: 1 512 32 32 (524288)
I0304 21:28:28.386637 46984 net.cpp:164] Top shape: 1 512 32 32 (524288)
I0304 21:28:28.386653 46984 layer_factory.hpp:76] Creating layer conv5_1
I0304 21:28:28.386673 46984 net.cpp:111] Creating Layer conv5_1
I0304 21:28:28.386690 46984 net.cpp:478] conv5_1 <- pool4_pool4_0_split_0
I0304 21:28:28.386713 46984 net.cpp:434] conv5_1 -> conv5_1
I0304 21:28:28.404961 46984 net.cpp:156] Setting up conv5_1
I0304 21:28:28.405007 46984 net.cpp:164] Top shape: 1 512 32 32 (524288)
I0304 21:28:28.405033 46984 layer_factory.hpp:76] Creating layer relu5_1
I0304 21:28:28.405055 46984 net.cpp:111] Creating Layer relu5_1
I0304 21:28:28.405073 46984 net.cpp:478] relu5_1 <- conv5_1
I0304 21:28:28.405093 46984 net.cpp:420] relu5_1 -> conv5_1 (in-place)
I0304 21:28:28.405117 46984 net.cpp:156] Setting up relu5_1
I0304 21:28:28.405136 46984 net.cpp:164] Top shape: 1 512 32 32 (524288)
I0304 21:28:28.405153 46984 layer_factory.hpp:76] Creating layer conv5_2
I0304 21:28:28.405177 46984 net.cpp:111] Creating Layer conv5_2
I0304 21:28:28.405195 46984 net.cpp:478] conv5_2 <- conv5_1
I0304 21:28:28.405216 46984 net.cpp:434] conv5_2 -> conv5_2
I0304 21:28:28.427507 46984 net.cpp:156] Setting up conv5_2
I0304 21:28:28.427553 46984 net.cpp:164] Top shape: 1 512 32 32 (524288)
I0304 21:28:28.427578 46984 layer_factory.hpp:76] Creating layer relu5_2
I0304 21:28:28.427606 46984 net.cpp:111] Creating Layer relu5_2
I0304 21:28:28.427625 46984 net.cpp:478] relu5_2 <- conv5_2
I0304 21:28:28.427649 46984 net.cpp:420] relu5_2 -> conv5_2 (in-place)
I0304 21:28:28.427675 46984 net.cpp:156] Setting up relu5_2
I0304 21:28:28.427693 46984 net.cpp:164] Top shape: 1 512 32 32 (524288)
I0304 21:28:28.427711 46984 layer_factory.hpp:76] Creating layer conv5_3
I0304 21:28:28.427731 46984 net.cpp:111] Creating Layer conv5_3
I0304 21:28:28.427772 46984 net.cpp:478] conv5_3 <- conv5_2
I0304 21:28:28.427795 46984 net.cpp:434] conv5_3 -> conv5_3
I0304 21:28:28.447640 46984 net.cpp:156] Setting up conv5_3
I0304 21:28:28.447685 46984 net.cpp:164] Top shape: 1 512 32 32 (524288)
I0304 21:28:28.447711 46984 layer_factory.hpp:76] Creating layer relu5_3
I0304 21:28:28.447737 46984 net.cpp:111] Creating Layer relu5_3
I0304 21:28:28.447757 46984 net.cpp:478] relu5_3 <- conv5_3
I0304 21:28:28.447777 46984 net.cpp:420] relu5_3 -> conv5_3 (in-place)
I0304 21:28:28.447800 46984 net.cpp:156] Setting up relu5_3
I0304 21:28:28.447820 46984 net.cpp:164] Top shape: 1 512 32 32 (524288)
I0304 21:28:28.447837 46984 layer_factory.hpp:76] Creating layer pool5
I0304 21:28:28.447857 46984 net.cpp:111] Creating Layer pool5
I0304 21:28:28.447875 46984 net.cpp:478] pool5 <- conv5_3
I0304 21:28:28.447896 46984 net.cpp:434] pool5 -> pool5
I0304 21:28:28.447921 46984 net.cpp:156] Setting up pool5
I0304 21:28:28.447942 46984 net.cpp:164] Top shape: 1 512 16 16 (131072)
I0304 21:28:28.447958 46984 layer_factory.hpp:76] Creating layer fc6-conv
I0304 21:28:28.447979 46984 net.cpp:111] Creating Layer fc6-conv
I0304 21:28:28.447996 46984 net.cpp:478] fc6-conv <- pool5
I0304 21:28:28.448019 46984 net.cpp:434] fc6-conv -> fc6
I0304 21:28:28.773104 46984 net.cpp:156] Setting up fc6-conv
I0304 21:28:28.773226 46984 net.cpp:164] Top shape: 1 4096 10 10 (409600)
I0304 21:28:28.773257 46984 layer_factory.hpp:76] Creating layer relu6
I0304 21:28:28.773283 46984 net.cpp:111] Creating Layer relu6
I0304 21:28:28.773303 46984 net.cpp:478] relu6 <- fc6
I0304 21:28:28.773336 46984 net.cpp:420] relu6 -> fc6 (in-place)
I0304 21:28:28.773365 46984 net.cpp:156] Setting up relu6
I0304 21:28:28.773386 46984 net.cpp:164] Top shape: 1 4096 10 10 (409600)
I0304 21:28:28.773402 46984 layer_factory.hpp:76] Creating layer drop6
I0304 21:28:28.773434 46984 net.cpp:111] Creating Layer drop6
I0304 21:28:28.773454 46984 net.cpp:478] drop6 <- fc6
I0304 21:28:28.773474 46984 net.cpp:420] drop6 -> fc6 (in-place)
I0304 21:28:28.773504 46984 net.cpp:156] Setting up drop6
I0304 21:28:28.773525 46984 net.cpp:164] Top shape: 1 4096 10 10 (409600)
I0304 21:28:28.773542 46984 layer_factory.hpp:76] Creating layer fc7-conv
I0304 21:28:28.773563 46984 net.cpp:111] Creating Layer fc7-conv
I0304 21:28:28.773581 46984 net.cpp:478] fc7-conv <- fc6
I0304 21:28:28.773600 46984 net.cpp:434] fc7-conv -> fc7
I0304 21:28:28.823715 46984 net.cpp:156] Setting up fc7-conv
I0304 21:28:28.823828 46984 net.cpp:164] Top shape: 1 4096 10 10 (409600)
I0304 21:28:28.823856 46984 layer_factory.hpp:76] Creating layer relu7
I0304 21:28:28.823884 46984 net.cpp:111] Creating Layer relu7
I0304 21:28:28.823901 46984 net.cpp:478] relu7 <- fc7
I0304 21:28:28.823923 46984 net.cpp:420] relu7 -> fc7 (in-place)
I0304 21:28:28.823951 46984 net.cpp:156] Setting up relu7
I0304 21:28:28.823971 46984 net.cpp:164] Top shape: 1 4096 10 10 (409600)
I0304 21:28:28.823987 46984 layer_factory.hpp:76] Creating layer drop7
I0304 21:28:28.824008 46984 net.cpp:111] Creating Layer drop7
I0304 21:28:28.824025 46984 net.cpp:478] drop7 <- fc7
I0304 21:28:28.824044 46984 net.cpp:420] drop7 -> fc7 (in-place)
I0304 21:28:28.824069 46984 net.cpp:156] Setting up drop7
I0304 21:28:28.824087 46984 net.cpp:164] Top shape: 1 4096 10 10 (409600)
I0304 21:28:28.824105 46984 layer_factory.hpp:76] Creating layer score59
I0304 21:28:28.824131 46984 net.cpp:111] Creating Layer score59
I0304 21:28:28.824148 46984 net.cpp:478] score59 <- fc7
I0304 21:28:28.824170 46984 net.cpp:434] score59 -> score59
I0304 21:28:28.825992 46984 net.cpp:156] Setting up score59
I0304 21:28:28.826027 46984 net.cpp:164] Top shape: 1 32 10 10 (3200)
I0304 21:28:28.826052 46984 layer_factory.hpp:76] Creating layer upscore2
I0304 21:28:28.826078 46984 net.cpp:111] Creating Layer upscore2
I0304 21:28:28.826098 46984 net.cpp:478] upscore2 <- score59
I0304 21:28:28.826119 46984 net.cpp:434] upscore2 -> upscore2
I0304 21:28:28.826185 46984 net.cpp:156] Setting up upscore2
I0304 21:28:28.826241 46984 net.cpp:164] Top shape: 1 32 22 22 (15488)
I0304 21:28:28.826274 46984 layer_factory.hpp:76] Creating layer upscore2_upscore2_0_split
I0304 21:28:28.826297 46984 net.cpp:111] Creating Layer upscore2_upscore2_0_split
I0304 21:28:28.826320 46984 net.cpp:478] upscore2_upscore2_0_split <- upscore2
I0304 21:28:28.826341 46984 net.cpp:434] upscore2_upscore2_0_split -> upscore2_upscore2_0_split_0
I0304 21:28:28.826366 46984 net.cpp:434] upscore2_upscore2_0_split -> upscore2_upscore2_0_split_1
I0304 21:28:28.826391 46984 net.cpp:156] Setting up upscore2_upscore2_0_split
I0304 21:28:28.826411 46984 net.cpp:164] Top shape: 1 32 22 22 (15488)
I0304 21:28:28.826428 46984 net.cpp:164] Top shape: 1 32 22 22 (15488)
I0304 21:28:28.826444 46984 layer_factory.hpp:76] Creating layer score-pool4
I0304 21:28:28.826464 46984 net.cpp:111] Creating Layer score-pool4
I0304 21:28:28.826481 46984 net.cpp:478] score-pool4 <- pool4_pool4_0_split_1
I0304 21:28:28.826500 46984 net.cpp:434] score-pool4 -> score-pool4
I0304 21:28:28.826591 46984 net.cpp:156] Setting up score-pool4
I0304 21:28:28.826619 46984 net.cpp:164] Top shape: 1 32 32 32 (32768)
I0304 21:28:28.826642 46984 layer_factory.hpp:76] Creating layer crop
I0304 21:28:28.826669 46984 net.cpp:111] Creating Layer crop
I0304 21:28:28.826689 46984 net.cpp:478] crop <- score-pool4
I0304 21:28:28.826707 46984 net.cpp:478] crop <- upscore2_upscore2_0_split_0
I0304 21:28:28.826727 46984 net.cpp:434] crop -> score-pool4c
I0304 21:28:28.826798 46984 net.cpp:156] Setting up crop
I0304 21:28:28.826822 46984 net.cpp:164] Top shape: 1 32 22 22 (15488)
I0304 21:28:28.826839 46984 layer_factory.hpp:76] Creating layer fuse
I0304 21:28:28.826864 46984 net.cpp:111] Creating Layer fuse
I0304 21:28:28.826882 46984 net.cpp:478] fuse <- upscore2_upscore2_0_split_1
I0304 21:28:28.826901 46984 net.cpp:478] fuse <- score-pool4c
I0304 21:28:28.826920 46984 net.cpp:434] fuse -> score-fused
I0304 21:28:28.826951 46984 net.cpp:156] Setting up fuse
I0304 21:28:28.826972 46984 net.cpp:164] Top shape: 1 32 22 22 (15488)
I0304 21:28:28.826988 46984 layer_factory.hpp:76] Creating layer upsample-fused-16
I0304 21:28:28.827010 46984 net.cpp:111] Creating Layer upsample-fused-16
I0304 21:28:28.827028 46984 net.cpp:478] upsample-fused-16 <- score-fused
I0304 21:28:28.827049 46984 net.cpp:434] upsample-fused-16 -> score4
I0304 21:28:28.827103 46984 net.cpp:156] Setting up upsample-fused-16
I0304 21:28:28.827131 46984 net.cpp:164] Top shape: 1 32 46 46 (67712)
I0304 21:28:28.827150 46984 layer_factory.hpp:76] Creating layer score4_upsample-fused-16_0_split
I0304 21:28:28.827170 46984 net.cpp:111] Creating Layer score4_upsample-fused-16_0_split
I0304 21:28:28.827188 46984 net.cpp:478] score4_upsample-fused-16_0_split <- score4
I0304 21:28:28.827206 46984 net.cpp:434] score4_upsample-fused-16_0_split -> score4_upsample-fused-16_0_split_0
I0304 21:28:28.827231 46984 net.cpp:434] score4_upsample-fused-16_0_split -> score4_upsample-fused-16_0_split_1
I0304 21:28:28.827255 46984 net.cpp:156] Setting up score4_upsample-fused-16_0_split
I0304 21:28:28.827275 46984 net.cpp:164] Top shape: 1 32 46 46 (67712)
I0304 21:28:28.827292 46984 net.cpp:164] Top shape: 1 32 46 46 (67712)
I0304 21:28:28.827313 46984 layer_factory.hpp:76] Creating layer score-pool3
I0304 21:28:28.827334 46984 net.cpp:111] Creating Layer score-pool3
I0304 21:28:28.827353 46984 net.cpp:478] score-pool3 <- pool3_pool3_0_split_1
I0304 21:28:28.827371 46984 net.cpp:434] score-pool3 -> score-pool3
I0304 21:28:28.827446 46984 net.cpp:156] Setting up score-pool3
I0304 21:28:28.827474 46984 net.cpp:164] Top shape: 1 32 63 63 (127008)
I0304 21:28:28.827497 46984 layer_factory.hpp:76] Creating layer crop
I0304 21:28:28.827517 46984 net.cpp:111] Creating Layer crop
I0304 21:28:28.827533 46984 net.cpp:478] crop <- score-pool3
I0304 21:28:28.827550 46984 net.cpp:478] crop <- score4_upsample-fused-16_0_split_0
I0304 21:28:28.827572 46984 net.cpp:434] crop -> score-pool3c
I0304 21:28:28.827625 46984 net.cpp:156] Setting up crop
I0304 21:28:28.827646 46984 net.cpp:164] Top shape: 1 32 46 46 (67712)
I0304 21:28:28.827677 46984 layer_factory.hpp:76] Creating layer fuse
I0304 21:28:28.827698 46984 net.cpp:111] Creating Layer fuse
I0304 21:28:28.827718 46984 net.cpp:478] fuse <- score4_upsample-fused-16_0_split_1
I0304 21:28:28.827735 46984 net.cpp:478] fuse <- score-pool3c
I0304 21:28:28.827754 46984 net.cpp:434] fuse -> score-final
I0304 21:28:28.827777 46984 net.cpp:156] Setting up fuse
I0304 21:28:28.827797 46984 net.cpp:164] Top shape: 1 32 46 46 (67712)
I0304 21:28:28.827813 46984 layer_factory.hpp:76] Creating layer upsample
I0304 21:28:28.827832 46984 net.cpp:111] Creating Layer upsample
I0304 21:28:28.827849 46984 net.cpp:478] upsample <- score-final
I0304 21:28:28.827872 46984 net.cpp:434] upsample -> bigscore
I0304 21:28:28.828697 46984 net.cpp:156] Setting up upsample
I0304 21:28:28.828732 46984 net.cpp:164] Top shape: 1 32 376 376 (4524032)
I0304 21:28:28.828752 46984 layer_factory.hpp:76] Creating layer crop
I0304 21:28:28.828776 46984 net.cpp:111] Creating Layer crop
I0304 21:28:28.828795 46984 net.cpp:478] crop <- bigscore
I0304 21:28:28.828814 46984 net.cpp:478] crop <- data_data_0_split_1
I0304 21:28:28.828833 46984 net.cpp:434] crop -> score
I0304 21:28:28.828896 46984 net.cpp:156] Setting up crop
I0304 21:28:28.828920 46984 net.cpp:164] Top shape: 1 32 300 300 (2880000)
I0304 21:28:28.828938 46984 layer_factory.hpp:76] Creating layer loss
I0304 21:28:28.828963 46984 net.cpp:111] Creating Layer loss
I0304 21:28:28.828982 46984 net.cpp:478] loss <- score
I0304 21:28:28.829000 46984 net.cpp:478] loss <- label
I0304 21:28:28.829020 46984 net.cpp:434] loss -> loss
I0304 21:28:28.829057 46984 layer_factory.hpp:76] Creating layer loss
I0304 21:28:28.837224 46984 net.cpp:156] Setting up loss
…
